Model: "sequential"
_________________________________________________________________
Layer (type)                 Output Shape              Param #   
=================================================================
conv2d (Conv2D)              (None, 9, 9, 15)          150       
_________________________________________________________________
flatten (Flatten)            (None, 1215)              0         
_________________________________________________________________
dense (Dense)                (None, 243)               295488    
_________________________________________________________________
dropout (Dropout)            (None, 243)               0         
_________________________________________________________________
dense_1 (Dense)              (None, 243)               59292     
_________________________________________________________________
dropout_1 (Dropout)          (None, 243)               0         
_________________________________________________________________
dense_2 (Dense)              (None, 243)               59292     
_________________________________________________________________
dropout_2 (Dropout)          (None, 243)               0         
_________________________________________________________________
dense_3 (Dense)              (None, 243)               59292     
_________________________________________________________________
dropout_3 (Dropout)          (None, 243)               0         
_________________________________________________________________
dense_4 (Dense)              (None, 243)               59292     
_________________________________________________________________
dropout_4 (Dropout)          (None, 243)               0         
_________________________________________________________________
dense_5 (Dense)              (None, 1)                 244       
=================================================================
Total params: 533,050
Trainable params: 533,050
Non-trainable params: 0
_________________________________________________________________
Epoch 1/100
79/79 [==============================] - 8s 18ms/step - loss: 0.6027 - acc: 0.6830 - binary_accuracy: 0.6830 - val_loss: 0.5488 - val_acc: 0.7291 - val_binary_accuracy: 0.7291
Epoch 2/100
…
